models/state_space_kernel_bundle_2024-01-01.pt (torch, 26140 bytes, 6 tensors)

likelihood.raw_task_noises f4 [6]
0.9736836 0.5857543 -9.546802 -9.440247 -9.497255 -9.516626
00000000: 5443 793f fef3 153f b3bf 18c1 400b 17c1
00000010: c2f4 17c1 1a44 18c1

base_kernel.timesteps f4 [5]
-1.1970562 -1.1892132 -1.18137 -1.1501284 -1.1265991
00000000: 2339 99bf 2338 98bf 2237 97bf 6837 93bf
00000010: 6634 90bf

covar_module.task_covar_module.covar_factor f4 [6, 1]
0.035694107 0.007229102 0.0037119808 0.17420459 -0.14216325 -0.02032518
00000000: fc33 123d 1ae2 ec3b b444 733b b062 323e
00000010: 3e93 11be fe80 a6bc

covar_module.task_covar_module.raw_var f4 [6]
-5.1874986 -3.9029317 -8.661649 -8.46568 -10.28655 -9.963728
00000000: fdff a5c0 a2c9 79c0 1d96 0ac1 6d73 07c1
00000010: b595 24c1 6e6b 1fc1

covar_module.data_covar_module.timesteps f4 [5]
-1.1970562 -1.1892132 -1.18137 -1.1501284 -1.1265991
00000000: 2339 99bf 2338 98bf 2237 97bf 6837 93bf
00000010: 6634 90bf

raw_task_noises f4 [6]
0.9736836 0.5857543 -9.546802 -9.440247 -9.497255 -9.516626
00000000: 5443 793f fef3 153f b3bf 18c1 400b 17c1
00000010: c2f4 17c1 1a44 18c1
